[2019-08-01 00:45:23,327 INFO]  * tgt vocab size = 510
[2019-08-01 00:45:23,327 INFO] Building model...
[2019-08-01 00:45:27,996 INFO] NMTModel(
  (encoder): ImageEncoder(
    (layer1): Conv2d(3, 64, kernel_size=(3, 3), stride=(1, 1), padding=(1, 1))
    (layer2): Conv2d(64, 128, kernel_size=(3, 3), stride=(1, 1), padding=(1, 1))
    (layer3): Conv2d(128, 256, kernel_size=(3, 3), stride=(1, 1), padding=(1, 1))
    (layer4): Conv2d(256, 256, kernel_size=(3, 3), stride=(1, 1), padding=(1, 1))
    (layer5): Conv2d(256, 512, kernel_size=(3, 3), stride=(1, 1), padding=(1, 1))
    (layer6): Conv2d(512, 512, kernel_size=(3, 3), stride=(1, 1), padding=(1, 1))
    (batch_norm1): BatchNorm2d(256, eps=1e-05, momentum=0.1, affine=True, track_running_stats=True)
    (batch_norm2): BatchNorm2d(512, eps=1e-05, momentum=0.1, affine=True, track_running_stats=True)
    (batch_norm3): BatchNorm2d(512, eps=1e-05, momentum=0.1, affine=True, track_running_stats=True)
    (rnn): LSTM(512, 250, num_layers=2, dropout=0.3, bidirectional=True)
    (pos_lut): Embedding(1000, 512)
  )
  (decoder): InputFeedRNNDecoder(
    (embeddings): Embeddings(
      (make_embedding): Sequential(
        (emb_luts): Elementwise(
          (0): Embedding(510, 80, padding_idx=1)
        )
      )
    )
    (dropout): Dropout(p=0.3)
    (rnn): StackedLSTM(
      (dropout): Dropout(p=0.3)
      (layers): ModuleList(
        (0): LSTMCell(580, 500)
        (1): LSTMCell(500, 500)
      )
    )
    (attn): GlobalAttention(
      (linear_in): Linear(in_features=500, out_features=500, bias=False)
      (linear_out): Linear(in_features=1000, out_features=500, bias=False)
    )
  )
  (generator): Sequential(
    (0): Linear(in_features=500, out_features=510, bias=True)
    (1): Cast()
    (2): LogSoftmax()
  )
)
[2019-08-01 00:45:27,998 INFO] encoder: 8047424
[2019-08-01 00:45:27,998 INFO] decoder: 5214310
[2019-08-01 00:45:27,998 INFO] * number of parameters: 13261734
[2019-08-01 00:45:28,969 INFO] Starting training on GPU: [0]
[2019-08-01 00:45:28,969 INFO] Start training loop and validate every 10000 steps...
[2019-08-01 00:46:40,163 INFO] Step 100/100000; acc:  14.05; ppl: 184.75; xent: 5.22; lr: 0.10000;   0/4607 tok/s;     71 sec
[2019-08-01 00:47:51,337 INFO] Step 200/100000; acc:  21.98; ppl: 49.75; xent: 3.91; lr: 0.10000;   0/4557 tok/s;    142 sec
[2019-08-01 00:48:52,250 INFO]  * tgt vocab size = 510
[2019-08-01 00:48:52,250 INFO] Building model...
[2019-08-01 00:48:56,838 INFO] NMTModel(
  (encoder): ImageEncoder(
    (layer1): Conv2d(3, 64, kernel_size=(3, 3), stride=(1, 1), padding=(1, 1))
    (layer2): Conv2d(64, 128, kernel_size=(3, 3), stride=(1, 1), padding=(1, 1))
    (layer3): Conv2d(128, 256, kernel_size=(3, 3), stride=(1, 1), padding=(1, 1))
    (layer4): Conv2d(256, 256, kernel_size=(3, 3), stride=(1, 1), padding=(1, 1))
    (layer5): Conv2d(256, 512, kernel_size=(3, 3), stride=(1, 1), padding=(1, 1))
    (layer6): Conv2d(512, 512, kernel_size=(3, 3), stride=(1, 1), padding=(1, 1))
    (batch_norm1): BatchNorm2d(256, eps=1e-05, momentum=0.1, affine=True, track_running_stats=True)
    (batch_norm2): BatchNorm2d(512, eps=1e-05, momentum=0.1, affine=True, track_running_stats=True)
    (batch_norm3): BatchNorm2d(512, eps=1e-05, momentum=0.1, affine=True, track_running_stats=True)
    (rnn): LSTM(512, 250, num_layers=2, dropout=0.3, bidirectional=True)
    (pos_lut): Embedding(1000, 512)
  )
  (decoder): InputFeedRNNDecoder(
    (embeddings): Embeddings(
      (make_embedding): Sequential(
        (emb_luts): Elementwise(
          (0): Embedding(510, 80, padding_idx=1)
        )
      )
    )
    (dropout): Dropout(p=0.3)
    (rnn): StackedLSTM(
      (dropout): Dropout(p=0.3)
      (layers): ModuleList(
        (0): LSTMCell(580, 500)
        (1): LSTMCell(500, 500)
      )
    )
    (attn): GlobalAttention(
      (linear_in): Linear(in_features=500, out_features=500, bias=False)
      (linear_out): Linear(in_features=1000, out_features=500, bias=False)
    )
  )
  (generator): Sequential(
    (0): Linear(in_features=500, out_features=510, bias=True)
    (1): Cast()
    (2): LogSoftmax()
  )
)
[2019-08-01 00:48:56,840 INFO] encoder: 8047424
[2019-08-01 00:48:56,840 INFO] decoder: 5214310
[2019-08-01 00:48:56,840 INFO] * number of parameters: 13261734
[2019-08-01 00:48:57,566 INFO] Starting training on GPU: [0]
[2019-08-01 00:48:57,566 INFO] Start training loop and validate every 10000 steps...
[2019-08-01 00:50:10,882 INFO] Step 100/100000; acc:  14.57; ppl: 191.91; xent: 5.26; lr: 0.10000;   0/4497 tok/s;     73 sec
…
