[2019-09-12 22:26:40,646 INFO]  * tgt vocab size = 510
[2019-09-12 22:26:40,646 INFO] Building model...
[2019-09-12 22:26:44,398 INFO] NMTModel(
  (encoder): ImageEncoder(
    (layer1): Conv2d(3, 64, kernel_size=(3, 3), stride=(1, 1), padding=(1, 1))
    (ds1): Downsample(
      (pad): ReflectionPad2d([1, 1, 1, 1])
    )
    (layer2): Conv2d(64, 128, kernel_size=(3, 3), stride=(1, 1), padding=(1, 1))
    (ds2): Downsample(
      (pad): ReflectionPad2d([1, 1, 1, 1])
    )
    (layer3): Conv2d(128, 256, kernel_size=(3, 3), stride=(1, 1), padding=(1, 1))
    (ds3): Downsample(
      (pad): ReflectionPad2d([1, 1, 1, 1])
    )
    (layer4): Conv2d(256, 256, kernel_size=(3, 3), stride=(1, 1), padding=(1, 1))
    (ds4): Downsample(
      (pad): ReflectionPad2d([1, 1, 1, 1])
    )
    (layer5): Conv2d(256, 512, kernel_size=(3, 3), stride=(1, 1), padding=(1, 1))
    (ds5): Downsample(
      (pad): ReflectionPad2d([1, 1, 1, 1])
    )
    (layer6): Conv2d(512, 512, kernel_size=(3, 3), stride=(1, 1), padding=(1, 1))
    (ds6): Downsample(
      (pad): ReflectionPad2d([1, 1, 1, 1])
    )
    (batch_norm1): BatchNorm2d(256, eps=1e-05, momentum=0.1, affine=True, track_running_stats=True)
    (batch_norm2): BatchNorm2d(512, eps=1e-05, momentum=0.1, affine=True, track_running_stats=True)
    (batch_norm3): BatchNorm2d(512, eps=1e-05, momentum=0.1, affine=True, track_running_stats=True)
    (rnn): LSTM(512, 250, num_layers=2, dropout=0.3, bidirectional=True)
    (pos_lut): Embedding(1000, 512)
  )
  (decoder): InputFeedRNNDecoder(
    (embeddings): Embeddings(
      (make_embedding): Sequential(
        (emb_luts): Elementwise(
          (0): Embedding(510, 80, padding_idx=1)
        )
      )
    )
    (dropout): Dropout(p=0.3)
    (rnn): StackedLSTM(
      (dropout): Dropout(p=0.3)
      (layers): ModuleList(
        (0): LSTMCell(580, 500)
        (1): LSTMCell(500, 500)
      )
    )
    (attn): GlobalAttention(
      (linear_in): Linear(in_features=500, out_features=500, bias=False)
      (linear_out): Linear(in_features=1000, out_features=500, bias=False)
    )
  )
  (generator): Sequential(
    (0): Linear(in_features=500, out_features=510, bias=True)
    (1): Cast()
    (2): LogSoftmax()
  )
)
[2019-09-12 22:26:44,399 INFO] encoder: 8047424
[2019-09-12 22:26:44,399 INFO] decoder: 5214310
[2019-09-12 22:26:44,399 INFO] * number of parameters: 13261734
[2019-09-12 22:26:47,940 INFO] Starting training on GPU: [0]
[2019-09-12 22:26:47,941 INFO] Start training loop and validate every 10000 steps...
[2019-09-12 22:29:54,489 INFO]  * tgt vocab size = 510
[2019-09-12 22:29:54,489 INFO] Building model...
[2019-09-12 22:29:58,293 INFO] NMTModel(
  (encoder): ImageEncoder(
    (layer1): Conv2d(3, 64, kernel_size=(3, 3), stride=(1, 1), padding=(1, 1))
    (ds1): Downsample(
      (pad): ReflectionPad2d([1, 1, 1, 1])
    )
    (layer2): Conv2d(64, 128, kernel_size=(3, 3), stride=(1, 1), padding=(1, 1))
    (ds2): Downsample(
      (pad): ReflectionPad2d([1, 1, 1, 1])
    )
    (layer3): Conv2d(128, 256, kernel_size=(3, 3), stride=(1, 1), padding=(1, 1))
    (ds3): Downsample(
      (pad): ReflectionPad2d([1, 1, 1, 1])
    )
    (layer4): Conv2d(256, 256, kernel_size=(3, 3), stride=(1, 1), padding=(1, 1))
    (ds4): Downsample(
      (pad): ReflectionPad2d([1, 1, 1, 1])
    )
    (layer5): Conv2d(256, 512, kernel_size=(3, 3), stride=(1, 1), padding=(1, 1))
    (ds5): Downsample(
      (pad): ReflectionPad2d([1, 1, 1, 1])
    )
    (layer6): Conv2d(512, 512, kernel_size=(3, 3), stride=(1, 1), padding=(1, 1))
    (ds6): Downsample(
      (pad): ReflectionPad2d([1, 1, 1, 1])
    )
    (batch_norm1): BatchNorm2d(256, eps=1e-05, momentum=0.1, affine=True, track_running_stats=True)
    (batch_norm2): BatchNorm2d(512, eps=1e-05, momentum=0.1, affine=True, track_running_stats=True)
    (batch_norm3): BatchNorm2d(512, eps=1e-05, momentum=0.1, affine=True, track_running_stats=True)
    (rnn): LSTM(512, 250, num_layers=2, dropout=0.3, bidirectional=True)
    (pos_lut): Embedding(1000, 512)
  )
  (decoder): InputFeedRNNDecoder(
    (embeddings): Embeddings(
      (make_embedding): Sequential(
        (emb_luts): Elementwise(
          (0): Embedding(510, 80, padding_idx=1)
        )
      )
    )
    (dropout): Dropout(p=0.3)
    (rnn): StackedLSTM(
      (dropout): Dropout(p=0.3)
      (layers): ModuleList(
        (0): LSTMCell(580, 500)
        (1): LSTMCell(500, 500)
      )
    )
    (attn): GlobalAttention(
      (linear_in): Linear(in_features=500, out_features=500, bias=False)
      (linear_out): Linear(in_features=1000, out_features=500, bias=False)
    )
  )
  (generator): Sequential(
    (0): Linear(in_features=500, out_features=510, bias=True)
    (1): Cast()
    (2): LogSoftmax()
  )
)
[2019-09-12 22:29:58,294 INFO] encoder: 8047424
[2019-09-12 22:29:58,294 INFO] decoder: 5214310
[2019-09-12 22:29:58,294 INFO] * number of parameters: 13261734
[2019-09-12 22:29:59,286 INFO] Starting training on GPU: [0]
[2019-09-12 22:29:59,286 INFO] Start training loop and validate every 10000 steps...
[2019-09-12 22:31:55,985 INFO] Step 500/100000; acc:  29.16; ppl: 36.79; xent: 3.61; lr: 0.10000;   0/5043 tok/s;    117 sec
…
[2019-09-13 04:32:43,881 INFO] Step 99500/100000; acc:  96.39; ppl:  1.13; xent: 0.12; lr: 0.00313;   0/5627 tok/s;  21765 sec
[2019-09-13 04:34:27,662 INFO] Step 100000/100000; acc:  96.37; ppl:  1.13; xent: 0.12; lr: 0.00156;   0/5621 tok/s;  21868 sec
[2019-09-13 04:35:06,885 INFO] Validation perplexity: 1.19272
[2019-09-13 04:35:06,886 INFO] Validation accuracy: 95.594
[2019-09-13 04:35:06,888 INFO] Saving checkpoint ../results/models/im2latex-28_step_100000.pt
[2019-09-17 14:00:50,482 INFO]  * tgt vocab size = 510
[2019-09-17 14:00:50,482 INFO] Building model...
[2019-09-17 14:00:54,416 INFO] NMTModel(
  (encoder): ImageEncoder(
    (layer1): Conv2d(3, 64, kernel_size=(3, 3), stride=(1, 1), padding=(1, 1))
    (ds1): Downsample(
      (pad): ReflectionPad2d([1, 1, 1, 1])
    )
    (layer2): Conv2d(64, 128, kernel_size=(3, 3), stride=(1, 1), padding=(1, 1))
    (ds2): Downsample(
      (pad): ReflectionPad2d([1, 1, 1, 1])
    )
    (layer3): Conv2d(128, 256, kernel_size=(3, 3), stride=(1, 1), padding=(1, 1))
    (ds3): Downsample(
      (pad): ReflectionPad2d([1, 1, 1, 1])
    )
    (layer4): Conv2d(256, 256, kernel_size=(3, 3), stride=(1, 1), padding=(1, 1))
    (ds4): Downsample(
      (pad): ReflectionPad2d([1, 1, 1, 1])
    )
    (layer5): Conv2d(256, 512, kernel_size=(3, 3), stride=(1, 1), padding=(1, 1))
    (ds5): Downsample(
      (pad): ReflectionPad2d([1, 1, 1, 1])
    )
    (layer6): Conv2d(512, 512, kernel_size=(3, 3), stride=(1, 1), padding=(1, 1))
    (batch_norm1): BatchNorm2d(256, eps=1e-05, momentum=0.1, affine=True, track_running_stats=True)
    (batch_norm2): BatchNorm2d(512, eps=1e-05, momentum=0.1, affine=True, track_running_stats=True)
    (batch_norm3): BatchNorm2d(512, eps=1e-05, momentum=0.1, affine=True, track_running_stats=True)
    (rnn): LSTM(512, 250, num_layers=2, dropout=0.3, bidirectional=True)
    (pos_lut): Embedding(1000, 512)
  )
  (decoder): InputFeedRNNDecoder(
    (embeddings): Embeddings(
      (make_embedding): Sequential(
        (emb_luts): Elementwise(
          (0): Embedding(510, 80, padding_idx=1)
        )
      )
    )
    (dropout): Dropout(p=0.3)
    (rnn): StackedLSTM(
      (dropout): Dropout(p=0.3)
      (layers): ModuleList(
        (0): LSTMCell(580, 500)
        (1): LSTMCell(500, 500)
      )
    )
    (attn): GlobalAttention(
      (linear_in): Linear(in_features=500, out_features=500, bias=False)
      (linear_out): Linear(in_features=1000, out_features=500, bias=False)
    )
  )
  (generator): Sequential(
    (0): Linear(in_features=500, out_features=510, bias=True)
    (1): Cast()
    (2): LogSoftmax()
  )
)
[2019-09-17 14:00:54,417 INFO] encoder: 8047424
[2019-09-17 14:00:54,417 INFO] decoder: 5214310
[2019-09-17 14:00:54,417 INFO] * number of parameters: 13261734
[2019-09-17 14:00:56,019 INFO] Starting training on GPU: [0]
[2019-09-17 14:00:56,019 INFO] Start training loop and validate every 10000 steps...
[2019-09-17 14:02:40,316 INFO] Step 500/200000; acc:  29.02; ppl: 37.94; xent: 3.64; lr: 0.10000;   0/5642 tok/s;    104 sec
…
