[2019-07-29 15:00:36,328 INFO]  * tgt vocab size = 510
[2019-07-29 15:00:36,328 INFO] Building model...
[2019-07-29 15:00:40,064 INFO] NMTModel(
  (encoder): ImageEncoder(
    (layer1): Conv2d(3, 64, kernel_size=(3, 3), stride=(1, 1), padding=(1, 1))
    (layer2): Conv2d(64, 128, kernel_size=(3, 3), stride=(1, 1), padding=(1, 1))
    (layer3): Conv2d(128, 256, kernel_size=(3, 3), stride=(1, 1), padding=(1, 1))
    (layer4): Conv2d(256, 256, kernel_size=(3, 3), stride=(1, 1), padding=(1, 1))
    (layer5): Conv2d(256, 512, kernel_size=(3, 3), stride=(1, 1), padding=(1, 1))
    (layer6): Conv2d(512, 512, kernel_size=(3, 3), stride=(1, 1), padding=(1, 1))
    (batch_norm1): BatchNorm2d(256, eps=1e-05, momentum=0.1, affine=True, track_running_stats=True)
    (batch_norm2): BatchNorm2d(512, eps=1e-05, momentum=0.1, affine=True, track_running_stats=True)
    (batch_norm3): BatchNorm2d(512, eps=1e-05, momentum=0.1, affine=True, track_running_stats=True)
    (rnn): LSTM(512, 256, dropout=0.3, bidirectional=True)
    (pos_lut): Embedding(1000, 512)
  )
  (decoder): InputFeedRNNDecoder(
    (embeddings): Embeddings(
      (make_embedding): Sequential(
        (emb_luts): Elementwise(
          (0): Embedding(510, 80, padding_idx=1)
        )
      )
    )
    (dropout): Dropout(p=0.3)
    (rnn): StackedLSTM(
      (dropout): Dropout(p=0.3)
      (layers): ModuleList(
        (0): LSTMCell(592, 512)
      )
    )
    (attn): GlobalAttention(
      (linear_in): Linear(in_features=512, out_features=512, bias=False)
      (linear_out): Linear(in_features=1024, out_features=512, bias=False)
    )
  )
  (generator): Sequential(
    (0): Linear(in_features=512, out_features=510, bias=True)
    (1): Cast()
    (2): LogSoftmax()
  )
)
[2019-07-29 15:00:40,065 INFO] encoder: 6592384
[2019-07-29 15:00:40,065 INFO] decoder: 3353950
[2019-07-29 15:00:40,065 INFO] * number of parameters: 9946334
[2019-07-29 15:00:40,376 INFO] Starting training on GPU: [0]
[2019-07-29 15:00:40,376 INFO] Start training loop and validate every 10000 steps...
[2019-07-29 15:04:19,365 INFO] Step 1000/100000; acc:  39.81; ppl: 19.32; xent: 2.96; lr: 0.10000;   0/5341 tok/s;    219 sec
…
