[2019-10-30 15:07:58,390 INFO]  * tgt vocab size = 510
[2019-10-30 15:07:58,390 INFO] Building model...
[2019-10-30 15:08:02,474 INFO] NMTModel(
  (encoder): ImageEncoder(
    (layer1): Conv2d(3, 64, kernel_size=(3, 3), stride=(1, 1), padding=(1, 1))
    (layer2): Conv2d(64, 64, kernel_size=(3, 3), stride=(1, 1), padding=(1, 1))
    (ds1): Downsample(
      (pad): ReflectionPad2d([1, 1, 1, 1])
    )
    (layer3): Conv2d(64, 128, kernel_size=(3, 3), stride=(1, 1), padding=(1, 1))
    (layer4): Conv2d(128, 128, kernel_size=(3, 3), stride=(1, 1), padding=(1, 1))
    (layer5): Conv2d(128, 128, kernel_size=(3, 3), stride=(1, 1), padding=(1, 1))
    (layer6): Conv2d(128, 128, kernel_size=(3, 3), stride=(1, 1), padding=(1, 1))
    (layer7): Conv2d(128, 128, kernel_size=(2, 2), stride=(1, 1), padding=(1, 1))
    (layer8): Conv2d(128, 256, kernel_size=(2, 2), stride=(1, 1), padding=(1, 1))
    (layer9): Conv2d(256, 256, kernel_size=(2, 2), stride=(1, 1), padding=(1, 1))
    (layer10): Conv2d(256, 256, kernel_size=(2, 2), stride=(1, 1), padding=(1, 1))
    (batch_norm1): BatchNorm2d(64, eps=1e-05, momentum=0.1, affine=True, track_running_stats=True)
    (batch_norm2): BatchNorm2d(128, eps=1e-05, momentum=0.1, affine=True, track_running_stats=True)
    (batch_norm3): BatchNorm2d(256, eps=1e-05, momentum=0.1, affine=True, track_running_stats=True)
    (rnn): LSTM(256, 250, num_layers=2, dropout=0.3, bidirectional=True)
    (pos_lut): Embedding(1000, 256)
  )
  (decoder): InputFeedRNNDecoder(
    (embeddings): Embeddings(
      (make_embedding): Sequential(
        (emb_luts): Elementwise(
          (0): Embedding(510, 80, padding_idx=1)
        )
      )
    )
    (dropout): Dropout(p=0.3)
    (rnn): StackedLSTM(
      (dropout): Dropout(p=0.3)
      (layers): ModuleList(
        (0): LSTMCell(580, 500)
        (1): LSTMCell(500, 500)
      )
    )
    (attn): GlobalAttention(
      (linear_in): Linear(in_features=500, out_features=500, bias=False)
      (linear_out): Linear(in_features=1000, out_features=500, bias=False)
      (linear_cover): Linear(in_features=1, out_features=500, bias=False)
    )
  )
  (generator): Sequential(
    (0): Linear(in_features=500, out_features=510, bias=True)
    (1): Cast()
    (2): LogSoftmax()
  )
)
[2019-10-30 15:08:02,476 INFO] encoder: 4054016
[2019-10-30 15:08:02,476 INFO] decoder: 5214810
[2019-10-30 15:08:02,476 INFO] * number of parameters: 9268826
[2019-10-30 15:08:02,777 INFO] Starting training on GPU: [0]
[2019-10-30 15:08:02,777 INFO] Start training loop and validate every 10000 steps...
[2019-10-30 15:17:18,399 INFO] Step 500/100000; acc:  28.26; ppl: 40.58; xent: 3.70; lr: 0.10000;   0/1059 tok/s;    556 sec
…
