[2019-10-23 09:37:51,853 INFO]  * tgt vocab size = 510
[2019-10-23 09:37:51,853 INFO] Building model...
[2019-10-23 09:37:55,851 INFO] NMTModel(
  (encoder): ImageEncoder(
    (layer1): DCN(
      (conv_offset_mask): Conv2d(3, 27, kernel_size=(3, 3), stride=(1, 1), padding=(1, 1))
    )
    (layer2): DCN(
      (conv_offset_mask): Conv2d(64, 27, kernel_size=(3, 3), stride=(1, 1), padding=(1, 1))
    )
    (layer3): DCN(
      (conv_offset_mask): Conv2d(128, 27, kernel_size=(3, 3), stride=(1, 1), padding=(1, 1))
    )
    (layer4): DCN(
      (conv_offset_mask): Conv2d(256, 27, kernel_size=(3, 3), stride=(1, 1), padding=(1, 1))
    )
    (layer5): DCN(
      (conv_offset_mask): Conv2d(256, 27, kernel_size=(3, 3), stride=(1, 1), padding=(1, 1))
    )
    (layer6): DCN(
      (conv_offset_mask): Conv2d(512, 27, kernel_size=(3, 3), stride=(1, 1), padding=(1, 1))
    )
    (batch_norm1): BatchNorm2d(256, eps=1e-05, momentum=0.1, affine=True, track_running_stats=True)
    (batch_norm2): BatchNorm2d(512, eps=1e-05, momentum=0.1, affine=True, track_running_stats=True)
    (batch_norm3): BatchNorm2d(512, eps=1e-05, momentum=0.1, affine=True, track_running_stats=True)
    (rnn): LSTM(512, 250, num_layers=2, dropout=0.3, bidirectional=True)
    (pos_lut): Embedding(1000, 512)
  )
  (decoder): InputFeedRNNDecoder(
    (embeddings): Embeddings(
      (make_embedding): Sequential(
        (emb_luts): Elementwise(
          (0): Embedding(510, 80, padding_idx=1)
        )
      )
    )
    (dropout): Dropout(p=0.3)
    (rnn): StackedLSTM(
      (dropout): Dropout(p=0.3)
      (layers): ModuleList(
        (0): LSTMCell(580, 500)
        (1): LSTMCell(500, 500)
      )
    )
    (attn): GlobalAttention(
      (linear_in): Linear(in_features=500, out_features=500, bias=False)
      (linear_out): Linear(in_features=1000, out_features=500, bias=False)
    )
  )
  (generator): Sequential(
    (0): Linear(in_features=500, out_features=510, bias=True)
    (1): Cast()
    (2): LogSoftmax()
  )
)
[2019-10-23 09:37:55,853 INFO] encoder: 8343803
[2019-10-23 09:37:55,853 INFO] decoder: 5214310
[2019-10-23 09:37:55,853 INFO] * number of parameters: 13558113
[2019-10-23 09:37:56,125 INFO] Starting training on GPU: [0]
[2019-10-23 09:37:56,125 INFO] Start training loop and validate every 10000 steps...
[2019-10-23 09:43:05,304 INFO] Step 500/100000; acc:  28.90; ppl: 39.07; xent: 3.67; lr: 0.10000;   0/1903 tok/s;    309 sec
…
