[2019-12-07 12:27:20,439 INFO]  * tgt vocab size = 510
[2019-12-07 12:27:20,439 INFO] Building model...
[2019-12-07 12:27:24,300 INFO] NMTModel(
  (encoder): ImageEncoder(
    (layer1): Conv2d(3, 64, kernel_size=(3, 3), stride=(1, 1), padding=(1, 1))
    (layer2): Conv2d(64, 128, kernel_size=(3, 3), stride=(1, 1), padding=(1, 1))
    (layer3): Conv2d(128, 256, kernel_size=(3, 3), stride=(1, 1), padding=(1, 1))
    (layer4): Conv2d(256, 256, kernel_size=(3, 3), stride=(1, 1), padding=(1, 1))
    (layer5): Conv2d(256, 512, kernel_size=(3, 3), stride=(1, 1), padding=(1, 1))
    (layer6): Conv2d(512, 512, kernel_size=(3, 3), stride=(1, 1), padding=(1, 1))
    (batch_norm1): BatchNorm2d(256, eps=1e-05, momentum=0.1, affine=True, track_running_stats=True)
    (batch_norm2): BatchNorm2d(512, eps=1e-05, momentum=0.1, affine=True, track_running_stats=True)
    (batch_norm3): BatchNorm2d(512, eps=1e-05, momentum=0.1, affine=True, track_running_stats=True)
    (rnn): LSTM(512, 250, num_layers=3, dropout=0.3, bidirectional=True)
    (pos_lut): Embedding(1000, 512)
  )
  (decoder): InputFeedRNNDecoder(
    (embeddings): Embeddings(
      (make_embedding): Sequential(
        (emb_luts): Elementwise(
          (0): Embedding(510, 80, padding_idx=1)
        )
      )
    )
    (dropout): Dropout(p=0.3)
    (rnn): StackedLSTM(
      (dropout): Dropout(p=0.3)
      (layers): ModuleList(
        (0): LSTMCell(580, 500)
        (1): LSTMCell(500, 500)
        (2): LSTMCell(500, 500)
      )
    )
    (attn): GlobalAttention(
      (linear_in): Linear(in_features=500, out_features=500, bias=False)
      (linear_out): Linear(in_features=1000, out_features=500, bias=False)
    )
  )
  (generator): Sequential(
    (0): Linear(in_features=500, out_features=510, bias=True)
    (1): Cast()
    (2): LogSoftmax()
  )
)
[2019-12-07 12:27:24,302 INFO] encoder: 9551424
[2019-12-07 12:27:24,302 INFO] decoder: 7218310
[2019-12-07 12:27:24,302 INFO] * number of parameters: 16769734
[2019-12-07 12:27:26,151 INFO] Starting training on GPU: [0]
[2019-12-07 12:27:26,151 INFO] Start training loop and validate every 10000 steps...
[2019-12-07 12:31:11,482 INFO] Step 500/100000; acc:  23.86; ppl: 50.58; xent: 3.92; lr: 0.10000;   0/2612 tok/s;    225 sec
…
