[2019-11-24 20:10:26,550 INFO] Loading checkpoint from ../results/models/im2latex-1_step_100000.pt
[2019-11-24 20:10:26,620 INFO] Loading vocab from checkpoint at ../results/models/im2latex-1_step_100000.pt.
[2019-11-24 20:10:26,620 INFO]  * tgt vocab size = 510
[2019-11-24 20:10:26,620 INFO] Building model...
[2019-11-24 20:10:40,114 INFO] NMTModel(
  (encoder): ImageEncoder(
    (layer1): Conv2d(3, 64, kernel_size=(3, 3), stride=(1, 1), padding=(1, 1))
    (layer2): Conv2d(64, 128, kernel_size=(3, 3), stride=(1, 1), padding=(1, 1))
    (layer3): Conv2d(128, 256, kernel_size=(3, 3), stride=(1, 1), padding=(1, 1))
    (layer4): Conv2d(256, 256, kernel_size=(3, 3), stride=(1, 1), padding=(1, 1))
    (layer5): Conv2d(256, 512, kernel_size=(3, 3), stride=(1, 1), padding=(1, 1))
    (layer6): Conv2d(512, 512, kernel_size=(3, 3), stride=(1, 1), padding=(1, 1))
    (batch_norm1): BatchNorm2d(256, eps=1e-05, momentum=0.1, affine=True, track_running_stats=True)
    (batch_norm2): BatchNorm2d(512, eps=1e-05, momentum=0.1, affine=True, track_running_stats=True)
    (batch_norm3): BatchNorm2d(512, eps=1e-05, momentum=0.1, affine=True, track_running_stats=True)
    (rnn): LSTM(512, 250, num_layers=2, dropout=0.3, bidirectional=True)
    (pos_lut): Embedding(1000, 512)
  )
  (decoder): InputFeedRNNDecoder(
    (embeddings): Embeddings(
      (make_embedding): Sequential(
        (emb_luts): Elementwise(
          (0): Embedding(510, 80, padding_idx=1)
        )
      )
    )
    (dropout): Dropout(p=0.3)
    (rnn): StackedLSTM(
      (dropout): Dropout(p=0.3)
      (layers): ModuleList(
        (0): LSTMCell(580, 500)
        (1): LSTMCell(500, 500)
      )
    )
    (attn): GlobalAttention(
      (linear_in): Linear(in_features=500, out_features=500, bias=False)
      (linear_out): Linear(in_features=1000, out_features=500, bias=False)
    )
  )
  (generator): Sequential(
    (0): Linear(in_features=500, out_features=510, bias=True)
    (1): Cast()
    (2): LogSoftmax()
  )
)
[2019-11-24 20:10:40,123 INFO] encoder: 8047424
[2019-11-24 20:10:40,123 INFO] decoder: 5214310
[2019-11-24 20:10:40,123 INFO] * number of parameters: 13261734
[2019-11-24 20:10:41,513 INFO] Starting training on GPU: [0]
[2019-11-24 20:10:41,513 INFO] Start training loop and validate every 10000 steps...
[2019-11-24 20:10:47,680 INFO] Saving checkpoint ../results/models/im2latex-53_step_100001.pt
[2019-11-24 20:15:01,486 INFO] Loading checkpoint from ../results/models/im2latex-1_step_100000.pt
[2019-11-24 20:15:01,590 INFO] Loading vocab from checkpoint at ../results/models/im2latex-1_step_100000.pt.
[2019-11-24 20:15:01,590 INFO]  * tgt vocab size = 510
[2019-11-24 20:15:01,590 INFO] Building model...
[2019-11-24 20:15:17,138 INFO] NMTModel(
  (encoder): ImageEncoder(
    (layer1): Conv2d(3, 64, kernel_size=(3, 3), stride=(1, 1), padding=(1, 1))
    (layer2): Conv2d(64, 128, kernel_size=(3, 3), stride=(1, 1), padding=(1, 1))
    (layer3): Conv2d(128, 256, kernel_size=(3, 3), stride=(1, 1), padding=(1, 1))
    (layer4): Conv2d(256, 256, kernel_size=(3, 3), stride=(1, 1), padding=(1, 1))
    (layer5): Conv2d(256, 512, kernel_size=(3, 3), stride=(1, 1), padding=(1, 1))
    (layer6): Conv2d(512, 512, kernel_size=(3, 3), stride=(1, 1), padding=(1, 1))
    (batch_norm1): BatchNorm2d(256, eps=1e-05, momentum=0.1, affine=True, track_running_stats=True)
    (batch_norm2): BatchNorm2d(512, eps=1e-05, momentum=0.1, affine=True, track_running_stats=True)
    (batch_norm3): BatchNorm2d(512, eps=1e-05, momentum=0.1, affine=True, track_running_stats=True)
    (rnn): LSTM(512, 250, num_layers=2, dropout=0.3, bidirectional=True)
    (pos_lut): Embedding(1000, 512)
  )
  (decoder): InputFeedRNNDecoder(
    (embeddings): Embeddings(
      (make_embedding): Sequential(
        (emb_luts): Elementwise(
          (0): Embedding(510, 80, padding_idx=1)
        )
      )
    )
    (dropout): Dropout(p=0.3)
    (rnn): StackedLSTM(
      (dropout): Dropout(p=0.3)
      (layers): ModuleList(
        (0): LSTMCell(580, 500)
        (1): LSTMCell(500, 500)
      )
    )
    (attn): GlobalAttention(
      (linear_in): Linear(in_features=500, out_features=500, bias=False)
      (linear_out): Linear(in_features=1000, out_features=500, bias=False)
    )
  )
  (generator): Sequential(
    (0): Linear(in_features=500, out_features=510, bias=True)
    (1): Cast()
    (2): LogSoftmax()
  )
)
[2019-11-24 20:15:17,154 INFO] encoder: 8047424
[2019-11-24 20:15:17,155 INFO] decoder: 5214310
[2019-11-24 20:15:17,155 INFO] * number of parameters: 13261734
[2019-11-24 20:15:17,673 INFO] Starting training on GPU: [0]
[2019-11-24 20:15:17,673 INFO] Start training loop and validate every 10000 steps...
[2019-11-24 20:25:42,539 INFO] Step 100500/200000; acc:  98.98; ppl:  1.03; xent: 0.03; lr: 0.00156;   0/942 tok/s;    625 sec
[2019-11-24 20:35:45,157 INFO] Step 101000/200000; acc:  98.97; ppl:  1.03; xent: 0.03; lr: 0.00156;   0/965 tok/s;   1227 sec
[2019-11-24 20:42:00,753 INFO]  * tgt vocab size = 510
[2019-11-24 20:42:00,753 INFO] Building model...
[2019-11-24 20:42:10,049 INFO] NMTModel(
  (encoder): ImageEncoder(
    (layer1): Conv2d(3, 64, kernel_size=(3, 3), stride=(1, 1), padding=(1, 1))
    (layer2): Conv2d(64, 128, kernel_size=(3, 3), stride=(1, 1), padding=(1, 1))
    (layer3): Conv2d(128, 256, kernel_size=(3, 3), stride=(1, 1), padding=(1, 1))
    (layer4): Conv2d(256, 256, kernel_size=(3, 3), stride=(1, 1), padding=(1, 1))
    (layer5): Conv2d(256, 512, kernel_size=(3, 3), stride=(1, 1), padding=(1, 1))
    (layer6): Conv2d(512, 512, kernel_size=(3, 3), stride=(1, 1), padding=(1, 1))
    (batch_norm1): BatchNorm2d(256, eps=1e-05, momentum=0.1, affine=True, track_running_stats=True)
    (batch_norm2): BatchNorm2d(512, eps=1e-05, momentum=0.1, affine=True, track_running_stats=True)
    (batch_norm3): BatchNorm2d(512, eps=1e-05, momentum=0.1, affine=True, track_running_stats=True)
    (rnn): LSTM(512, 250, num_layers=2, dropout=0.3, bidirectional=True)
    (pos_lut): Embedding(1000, 512)
  )
  (decoder): InputFeedRNNDecoder(
    (embeddings): Embeddings(
      (make_embedding): Sequential(
        (emb_luts): Elementwise(
          (0): Embedding(510, 80, padding_idx=1)
        )
      )
    )
    (dropout): Dropout(p=0.3, inplace=False)
    (rnn): StackedLSTM(
      (dropout): Dropout(p=0.3, inplace=False)
      (layers): ModuleList(
        (0): LSTMCell(580, 500)
        (1): LSTMCell(500, 500)
      )
    )
    (attn): GlobalAttention(
      (linear_in): Linear(in_features=500, out_features=500, bias=False)
      (linear_out): Linear(in_features=1000, out_features=500, bias=False)
    )
  )
  (generator): Sequential(
    (0): Linear(in_features=500, out_features=510, bias=True)
    (1): Cast()
    (2): LogSoftmax()
  )
)
[2019-11-24 20:42:10,058 INFO] encoder: 8047424
[2019-11-24 20:42:10,059 INFO] decoder: 5214310
[2019-11-24 20:42:10,059 INFO] * number of parameters: 13261734
[2019-11-24 20:42:10,570 INFO] Starting training on GPU: [0]
[2019-11-24 20:42:10,571 INFO] Start training loop and validate every 10000 steps...
[2019-11-24 20:52:43,230 INFO] Step 500/100000; acc:  29.01; ppl: 38.32; xent: 3.65; lr: 0.10000;   0/930 tok/s;    633 sec
[2019-11-24 20:54:17,965 INFO] Loading checkpoint from ../results/models/im2latex-1_step_100000.pt
[2019-11-24 20:54:18,059 INFO] Loading vocab from checkpoint at ../results/models/im2latex-1_step_100000.pt.
[2019-11-24 20:54:18,062 INFO]  * tgt vocab size = 510
[2019-11-24 20:54:18,062 INFO] Building model...
[2019-11-24 20:54:28,650 INFO] NMTModel(
  (encoder): ImageEncoder(
    (layer1): Conv2d(3, 64, kernel_size=(3, 3), stride=(1, 1), padding=(1, 1))
    (layer2): Conv2d(64, 128, kernel_size=(3, 3), stride=(1, 1), padding=(1, 1))
    (layer3): Conv2d(128, 256, kernel_size=(3, 3), stride=(1, 1), padding=(1, 1))
    (layer4): Conv2d(256, 256, kernel_size=(3, 3), stride=(1, 1), padding=(1, 1))
    (layer5): Conv2d(256, 512, kernel_size=(3, 3), stride=(1, 1), padding=(1, 1))
    (layer6): Conv2d(512, 512, kernel_size=(3, 3), stride=(1, 1), padding=(1, 1))
    (batch_norm1): BatchNorm2d(256, eps=1e-05, momentum=0.1, affine=True, track_running_stats=True)
    (batch_norm2): BatchNorm2d(512, eps=1e-05, momentum=0.1, affine=True, track_running_stats=True)
    (batch_norm3): BatchNorm2d(512, eps=1e-05, momentum=0.1, affine=True, track_running_stats=True)
    (rnn): LSTM(512, 250, num_layers=2, dropout=0.3, bidirectional=True)
    (pos_lut): Embedding(1000, 512)
  )
  (decoder): InputFeedRNNDecoder(
    (embeddings): Embeddings(
      (make_embedding): Sequential(
        (emb_luts): Elementwise(
          (0): Embedding(510, 80, padding_idx=1)
        )
      )
    )
    (dropout): Dropout(p=0.3, inplace=False)
    (rnn): StackedLSTM(
      (dropout): Dropout(p=0.3, inplace=False)
      (layers): ModuleList(
        (0): LSTMCell(580, 500)
        (1): LSTMCell(500, 500)
      )
    )
    (attn): GlobalAttention(
      (linear_in): Linear(in_features=500, out_features=500, bias=False)
      (linear_out): Linear(in_features=1000, out_features=500, bias=False)
    )
  )
  (generator): Sequential(
    (0): Linear(in_features=500, out_features=510, bias=True)
    (1): Cast()
    (2): LogSoftmax()
  )
)
[2019-11-24 20:54:28,656 INFO] encoder: 8047424
[2019-11-24 20:54:28,656 INFO] decoder: 5214310
[2019-11-24 20:54:28,656 INFO] * number of parameters: 13261734
[2019-11-24 20:54:29,154 INFO] Starting training on GPU: [0]
[2019-11-24 20:54:29,154 INFO] Start training loop and validate every 10000 steps...
[2019-11-24 21:04:45,123 INFO] Step 100500/200000; acc:  98.99; ppl:  1.03; xent: 0.03; lr: 0.00156;   0/955 tok/s;    616 sec
…
