[2019-11-24 20:37:14,195 INFO]  * tgt vocab size = 510
[2019-11-24 20:37:14,196 INFO] Building model...
[2019-11-24 20:37:29,407 INFO] NMTModel(
  (encoder): ImageEncoder(
    (layer1): Conv2d(3, 64, kernel_size=(3, 3), stride=(1, 1), padding=(1, 1))
    (layer2): Conv2d(64, 128, kernel_size=(3, 3), stride=(1, 1), padding=(1, 1))
    (layer3): Conv2d(128, 256, kernel_size=(3, 3), stride=(1, 1), padding=(1, 1))
    (layer4): Conv2d(256, 256, kernel_size=(3, 3), stride=(1, 1), padding=(1, 1))
    (layer5): Conv2d(256, 512, kernel_size=(3, 3), stride=(1, 1), padding=(1, 1))
    (layer6): Conv2d(512, 512, kernel_size=(3, 3), stride=(1, 1), padding=(1, 1))
    (batch_norm1): BatchNorm2d(256, eps=1e-05, momentum=0.1, affine=True, track_running_stats=True)
    (batch_norm2): BatchNorm2d(512, eps=1e-05, momentum=0.1, affine=True, track_running_stats=True)
    (batch_norm3): BatchNorm2d(512, eps=1e-05, momentum=0.1, affine=True, track_running_stats=True)
    (rnn): LSTM(512, 250, num_layers=2, dropout=0.3, bidirectional=True)
    (pos_lut): Embedding(1000, 512)
  )
  (decoder): InputFeedRNNDecoder(
    (embeddings): Embeddings(
      (make_embedding): Sequential(
        (emb_luts): Elementwise(
          (0): Embedding(510, 80, padding_idx=1)
        )
      )
    )
    (dropout): Dropout(p=0.3, inplace=False)
    (rnn): StackedLSTM(
      (dropout): Dropout(p=0.3, inplace=False)
      (layers): ModuleList(
        (0): LSTMCell(580, 500)
        (1): LSTMCell(500, 500)
      )
    )
    (attn): GlobalAttention(
      (linear_in): Linear(in_features=500, out_features=500, bias=False)
      (linear_out): Linear(in_features=1000, out_features=500, bias=False)
    )
    (copy_attn): GlobalAttention(
      (linear_in): Linear(in_features=500, out_features=500, bias=False)
      (linear_out): Linear(in_features=1000, out_features=500, bias=False)
    )
  )
  (generator): CopyGenerator(
    (linear): Linear(in_features=500, out_features=510, bias=True)
    (linear_copy): Linear(in_features=500, out_features=1, bias=True)
  )
)
[2019-11-24 20:37:29,414 INFO] encoder: 8047424
[2019-11-24 20:37:29,414 INFO] decoder: 5964811
[2019-11-24 20:37:29,414 INFO] * number of parameters: 14012235
[2019-11-24 20:37:31,138 INFO] Starting training on GPU: [0]
[2019-11-24 20:37:31,138 INFO] Start training loop and validate every 10000 steps...
[2019-11-24 20:37:33,151 INFO] At step 1, we removed a batch - accum 0
…
[2019-11-24 20:37:45,352 INFO] At step 17, we removed a batch - accum 0
[2019-11-24 20:37:47,185 INFO] At step 18, we removed a batch - accum 0
[2019-11-24 20:37:49,118 INFO] At step 19, we removed a batch - accum 0
[2019-11-24 20:37:50,603 INFO] At step 20, we removed a batch - accum 0
[2019-11-24 20:37:51,149 INFO] At step 21, we removed a batch - accum 0
[2019-11-24 20:37:52,125 INFO] At step 22, we removed a batch - accum 0
[2019-11-24 20:39:19,749 INFO]  * tgt vocab size = 510
[2019-11-24 20:39:19,749 INFO] Building model...
[2019-11-24 20:39:30,063 INFO] NMTModel(
  (encoder): ImageEncoder(
    (layer1): Conv2d(3, 64, kernel_size=(3, 3), stride=(1, 1), padding=(1, 1))
    (layer2): Conv2d(64, 128, kernel_size=(3, 3), stride=(1, 1), padding=(1, 1))
    (layer3): Conv2d(128, 256, kernel_size=(3, 3), stride=(1, 1), padding=(1, 1))
    (layer4): Conv2d(256, 256, kernel_size=(3, 3), stride=(1, 1), padding=(1, 1))
    (layer5): Conv2d(256, 512, kernel_size=(3, 3), stride=(1, 1), padding=(1, 1))
    (layer6): Conv2d(512, 512, kernel_size=(3, 3), stride=(1, 1), padding=(1, 1))
    (batch_norm1): BatchNorm2d(256, eps=1e-05, momentum=0.1, affine=True, track_running_stats=True)
    (batch_norm2): BatchNorm2d(512, eps=1e-05, momentum=0.1, affine=True, track_running_stats=True)
    (batch_norm3): BatchNorm2d(512, eps=1e-05, momentum=0.1, affine=True, track_running_stats=True)
    (rnn): LSTM(512, 250, num_layers=2, dropout=0.3, bidirectional=True)
    (pos_lut): Embedding(1000, 512)
  )
  (decoder): InputFeedRNNDecoder(
    (embeddings): Embeddings(
      (make_embedding): Sequential(
        (emb_luts): Elementwise(
          (0): Embedding(510, 80, padding_idx=1)
        )
      )
    )
    (dropout): Dropout(p=0.3, inplace=False)
    (rnn): StackedLSTM(
      (dropout): Dropout(p=0.3, inplace=False)
      (layers): ModuleList(
        (0): LSTMCell(580, 500)
        (1): LSTMCell(500, 500)
      )
    )
    (attn): GlobalAttention(
      (linear_in): Linear(in_features=500, out_features=500, bias=False)
      (linear_out): Linear(in_features=1000, out_features=500, bias=False)
    )
  )
  (generator): Sequential(
    (0): Linear(in_features=500, out_features=510, bias=True)
    (1): Cast()
    (2): LogSoftmax()
  )
)
[2019-11-24 20:39:30,071 INFO] encoder: 8047424
[2019-11-24 20:39:30,072 INFO] decoder: 5214310
[2019-11-24 20:39:30,072 INFO] * number of parameters: 13261734
[2019-11-24 20:39:31,101 INFO] Starting training on GPU: [0]
[2019-11-24 20:39:31,101 INFO] Start training loop and validate every 10000 steps...
[2019-11-24 20:43:31,857 INFO]  * tgt vocab size = 510
[2019-11-24 20:43:31,858 INFO] Building model...
[2019-11-24 20:43:42,548 INFO] NMTModel(
  (encoder): ImageEncoder(
    (layer1): Conv2d(3, 64, kernel_size=(3, 3), stride=(1, 1), padding=(1, 1))
    (layer2): Conv2d(64, 128, kernel_size=(3, 3), stride=(1, 1), padding=(1, 1))
    (layer3): Conv2d(128, 256, kernel_size=(3, 3), stride=(1, 1), padding=(1, 1))
    (layer4): Conv2d(256, 256, kernel_size=(3, 3), stride=(1, 1), padding=(1, 1))
    (layer5): Conv2d(256, 512, kernel_size=(3, 3), stride=(1, 1), padding=(1, 1))
    (layer6): Conv2d(512, 512, kernel_size=(3, 3), stride=(1, 1), padding=(1, 1))
    (batch_norm1): BatchNorm2d(256, eps=1e-05, momentum=0.1, affine=True, track_running_stats=True)
    (batch_norm2): BatchNorm2d(512, eps=1e-05, momentum=0.1, affine=True, track_running_stats=True)
    (batch_norm3): BatchNorm2d(512, eps=1e-05, momentum=0.1, affine=True, track_running_stats=True)
    (rnn): LSTM(512, 250, num_layers=2, dropout=0.3, bidirectional=True)
    (pos_lut): Embedding(1000, 512)
  )
  (decoder): InputFeedRNNDecoder(
    (embeddings): Embeddings(
      (make_embedding): Sequential(
        (emb_luts): Elementwise(
          (0): Embedding(510, 80, padding_idx=1)
        )
      )
    )
    (dropout): Dropout(p=0.3, inplace=False)
    (rnn): StackedLSTM(
      (dropout): Dropout(p=0.3, inplace=False)
      (layers): ModuleList(
        (0): LSTMCell(580, 500)
        (1): LSTMCell(500, 500)
      )
    )
    (attn): GlobalAttention(
      (linear_in): Linear(in_features=500, out_features=500, bias=False)
      (linear_out): Linear(in_features=1000, out_features=500, bias=False)
    )
  )
  (generator): Sequential(
    (0): Linear(in_features=500, out_features=510, bias=True)
    (1): Cast()
    (2): LogSoftmax()
  )
)
[2019-11-24 20:43:42,559 INFO] encoder: 8047424
[2019-11-24 20:43:42,560 INFO] decoder: 5214310
[2019-11-24 20:43:42,560 INFO] * number of parameters: 13261734
[2019-11-24 20:43:44,585 INFO] Starting training on GPU: [0]
[2019-11-24 20:43:44,586 INFO] Start training loop and validate every 10000 steps...
[2019-11-24 20:54:03,169 INFO] Step 500/100000; acc:  29.82; ppl: 32.51; xent: 3.48; lr: 0.10000;   0/951 tok/s;    619 sec
…
