[2019-12-11 15:03:49,827 INFO]  * tgt vocab size = 510
[2019-12-11 15:03:49,828 INFO] Building model...
[2019-12-11 15:03:56,660 INFO] NMTModel(
  (encoder): ImageEncoder(
    (layer1): Conv2d(3, 64, kernel_size=(3, 3), stride=(1, 1), padding=(1, 1))
    (layer2): Conv2d(64, 64, kernel_size=(3, 3), stride=(1, 1), padding=(1, 1))
    (ds1): Downsample(
      (pad): ReflectionPad2d([3, 3, 3, 3])
    )
    (layer3): Conv2d(64, 128, kernel_size=(3, 3), stride=(1, 1), padding=(1, 1))
    (layer4): Conv2d(128, 128, kernel_size=(3, 3), stride=(1, 1), padding=(1, 1))
    (layer5): Conv2d(128, 128, kernel_size=(3, 3), stride=(1, 1), padding=(1, 1))
    (layer6): Conv2d(128, 128, kernel_size=(3, 3), stride=(1, 1), padding=(1, 1))
    (layer7): Conv2d(128, 128, kernel_size=(2, 2), stride=(1, 1), padding=(1, 1))
    (layer8): Conv2d(128, 256, kernel_size=(2, 2), stride=(1, 1), padding=(1, 1))
    (layer9): Conv2d(256, 256, kernel_size=(2, 2), stride=(1, 1), padding=(1, 1))
    (layer10): Conv2d(256, 256, kernel_size=(2, 2), stride=(1, 1), padding=(1, 1))
    (batch_norm1): BatchNorm2d(64, eps=1e-05, momentum=0.1, affine=True, track_running_stats=True)
    (batch_norm2): BatchNorm2d(128, eps=1e-05, momentum=0.1, affine=True, track_running_stats=True)
    (batch_norm3): BatchNorm2d(256, eps=1e-05, momentum=0.1, affine=True, track_running_stats=True)
    (rnn): LSTM(256, 500, num_layers=2, dropout=0.3, bidirectional=True)
    (pos_lut): Embedding(1000, 256)
  )
  (decoder): InputFeedRNNDecoder(
    (embeddings): Embeddings(
      (make_embedding): Sequential(
        (emb_luts): Elementwise(
          (0): Embedding(510, 80, padding_idx=1)
        )
      )
    )
    (dropout): Dropout(p=0.3)
    (rnn): StackedLSTM(
      (dropout): Dropout(p=0.3)
      (layers): ModuleList(
        (0): LSTMCell(1080, 1000)
        (1): LSTMCell(1000, 1000)
      )
    )
    (attn): GlobalAttention(
      (linear_in): Linear(in_features=1000, out_features=1000, bias=False)
      (linear_out): Linear(in_features=2000, out_features=1000, bias=False)
    )
  )
  (generator): Sequential(
    (0): Linear(in_features=1000, out_features=510, bias=True)
    (1): Cast()
    (2): LogSoftmax()
  )
)
[2019-12-11 15:03:56,662 INFO] encoder: 10574016
[2019-12-11 15:03:56,662 INFO] decoder: 19887310
[2019-12-11 15:03:56,662 INFO] * number of parameters: 30461326
[2019-12-11 15:03:57,166 INFO] Starting training on GPU: [0]
[2019-12-11 15:03:57,166 INFO] Start training loop and validate every 10000 steps...
[2019-12-11 15:19:15,080 INFO] Step 500/100000; acc:  15.05; ppl: 115.30; xent: 4.75; lr: 0.10000;   0/641 tok/s;    918 sec
…
