[2019-07-30 00:20:52,801 INFO]  * tgt vocab size = 510
[2019-07-30 00:20:52,801 INFO] Building model...
[2019-07-30 00:20:56,756 INFO] NMTModel(
  (encoder): ImageEncoder(
    (layer1): Conv2d(3, 64, kernel_size=(3, 3), stride=(1, 1), padding=(1, 1))
    (layer2): Conv2d(64, 128, kernel_size=(3, 3), stride=(1, 1), padding=(1, 1))
    (layer3): Conv2d(128, 256, kernel_size=(3, 3), stride=(1, 1), padding=(1, 1))
    (layer4): Conv2d(256, 256, kernel_size=(3, 3), stride=(1, 1), padding=(1, 1))
    (layer5): Conv2d(256, 512, kernel_size=(3, 3), stride=(1, 1), padding=(1, 1))
    (layer6): Conv2d(512, 512, kernel_size=(3, 3), stride=(1, 1), padding=(1, 1))
    (batch_norm1): BatchNorm2d(256, eps=1e-05, momentum=0.1, affine=True, track_running_stats=True)
    (batch_norm2): BatchNorm2d(512, eps=1e-05, momentum=0.1, affine=True, track_running_stats=True)
    (batch_norm3): BatchNorm2d(512, eps=1e-05, momentum=0.1, affine=True, track_running_stats=True)
    (rnn): LSTM(512, 500, num_layers=2, dropout=0.3)
    (pos_lut): Embedding(1000, 512)
  )
  (decoder): InputFeedRNNDecoder(
    (embeddings): Embeddings(
      (make_embedding): Sequential(
        (emb_luts): Elementwise(
          (0): Embedding(510, 80, padding_idx=1)
        )
      )
    )
    (dropout): Dropout(p=0.3)
    (rnn): StackedLSTM(
      (dropout): Dropout(p=0.3)
      (layers): ModuleList(
        (0): LSTMCell(580, 500)
        (1): LSTMCell(500, 500)
      )
    )
    (attn): GlobalAttention(
      (linear_in): Linear(in_features=500, out_features=500, bias=False)
      (linear_out): Linear(in_features=1000, out_features=500, bias=False)
    )
  )
  (generator): Sequential(
    (0): Linear(in_features=500, out_features=510, bias=True)
    (1): Cast()
    (2): LogSoftmax()
  )
)
[2019-07-30 00:20:56,757 INFO] encoder: 9047424
[2019-07-30 00:20:56,757 INFO] decoder: 5214310
[2019-07-30 00:20:56,757 INFO] * number of parameters: 14261734
[2019-07-30 00:20:57,045 INFO] Starting training on GPU: [0]
[2019-07-30 00:20:57,045 INFO] Start training loop and validate every 10000 steps...
[2019-07-30 00:26:06,084 INFO] Step 1000/100000; acc:  37.53; ppl: 21.63; xent: 3.07; lr: 0.10000;   0/3785 tok/s;    309 sec
…
[2019-07-30 08:52:24,890 INFO] Step 99000/100000; acc:  98.94; ppl:  1.03; xent: 0.03; lr: 0.00313;   0/3346 tok/s;  30688 sec
[2019-07-30 08:57:22,870 INFO] Step 100000/100000; acc:  98.95; ppl:  1.03; xent: 0.03; lr: 0.00156;   0/3935 tok/s;  30986 sec
[2019-07-30 08:58:25,474 INFO] Validation perplexity: 1.09897
[2019-07-30 08:58:25,475 INFO] Validation accuracy: 97.8602
[2019-07-30 08:58:25,477 INFO] Saving checkpoint ../results/models/im2latex-9_step_100000.pt
[2019-07-31 15:56:14,332 INFO]  * tgt vocab size = 510
[2019-07-31 15:56:14,332 INFO] Building model...
[2019-07-31 15:56:18,158 INFO] NMTModel(
  (encoder): ImageEncoder(
    (layer1): Conv2d(3, 64, kernel_size=(3, 3), stride=(1, 1), padding=(1, 1))
    (layer2): Conv2d(64, 128, kernel_size=(3, 3), stride=(1, 1), padding=(1, 1))
    (layer3): Conv2d(128, 256, kernel_size=(3, 3), stride=(1, 1), padding=(1, 1))
    (layer4): Conv2d(256, 256, kernel_size=(3, 3), stride=(1, 1), padding=(1, 1))
    (layer5): Conv2d(256, 512, kernel_size=(3, 3), stride=(1, 1), padding=(1, 1))
    (layer6): Conv2d(512, 512, kernel_size=(3, 3), stride=(1, 1), padding=(1, 1))
    (batch_norm1): BatchNorm2d(256, eps=1e-05, momentum=0.1, affine=True, track_running_stats=True)
    (batch_norm2): BatchNorm2d(512, eps=1e-05, momentum=0.1, affine=True, track_running_stats=True)
    (batch_norm3): BatchNorm2d(512, eps=1e-05, momentum=0.1, affine=True, track_running_stats=True)
    (rnn): LSTM(512, 250, num_layers=2, dropout=0.3, bidirectional=True)
    (pos_lut): Embedding(1000, 512)
  )
  (decoder): InputFeedRNNDecoder(
    (embeddings): Embeddings(
      (make_embedding): Sequential(
        (emb_luts): Elementwise(
          (0): Embedding(510, 80, padding_idx=1)
        )
      )
    )
    (dropout): Dropout(p=0.3)
    (rnn): StackedLSTM(
      (dropout): Dropout(p=0.3)
      (layers): ModuleList(
        (0): LSTMCell(580, 500)
        (1): LSTMCell(500, 500)
      )
    )
    (attn): GlobalAttention(
      (linear_in): Linear(in_features=500, out_features=500, bias=False)
      (linear_out): Linear(in_features=1000, out_features=500, bias=False)
    )
  )
  (generator): Sequential(
    (0): Linear(in_features=500, out_features=510, bias=True)
    (1): Cast()
    (2): LogSoftmax()
  )
)
[2019-07-31 15:56:18,159 INFO] encoder: 8047424
[2019-07-31 15:56:18,159 INFO] decoder: 5214310
[2019-07-31 15:56:18,159 INFO] * number of parameters: 13261734
[2019-07-31 15:56:18,245 INFO] Starting training on GPU: [0]
[2019-07-31 15:56:18,245 INFO] Start training loop and validate every 10000 steps...
[2019-07-31 16:01:52,378 INFO]  * tgt vocab size = 510
[2019-07-31 16:01:52,378 INFO] Building model...
[2019-07-31 16:01:56,161 INFO] NMTModel(
  (encoder): ImageEncoder(
    (layer1): Conv2d(3, 64, kernel_size=(3, 3), stride=(1, 1), padding=(1, 1))
    (layer2): Conv2d(64, 128, kernel_size=(3, 3), stride=(1, 1), padding=(1, 1))
    (layer3): Conv2d(128, 256, kernel_size=(3, 3), stride=(1, 1), padding=(1, 1))
    (layer4): Conv2d(256, 256, kernel_size=(3, 3), stride=(1, 1), padding=(1, 1))
    (layer5): Conv2d(256, 512, kernel_size=(3, 3), stride=(1, 1), padding=(1, 1))
    (layer6): Conv2d(512, 512, kernel_size=(3, 3), stride=(1, 1), padding=(1, 1))
    (batch_norm1): BatchNorm2d(256, eps=1e-05, momentum=0.1, affine=True, track_running_stats=True)
    (batch_norm2): BatchNorm2d(512, eps=1e-05, momentum=0.1, affine=True, track_running_stats=True)
    (batch_norm3): BatchNorm2d(512, eps=1e-05, momentum=0.1, affine=True, track_running_stats=True)
    (rnn): LSTM(512, 250, num_layers=2, dropout=0.3, bidirectional=True)
    (pos_lut): Embedding(1000, 512)
  )
  (decoder): InputFeedRNNDecoder(
    (embeddings): Embeddings(
      (make_embedding): Sequential(
        (emb_luts): Elementwise(
          (0): Embedding(510, 80, padding_idx=1)
        )
      )
    )
    (dropout): Dropout(p=0.3)
    (rnn): StackedLSTM(
      (dropout): Dropout(p=0.3)
      (layers): ModuleList(
        (0): LSTMCell(580, 500)
        (1): LSTMCell(500, 500)
      )
    )
    (attn): GlobalAttention(
      (linear_in): Linear(in_features=500, out_features=500, bias=False)
      (linear_out): Linear(in_features=1000, out_features=500, bias=False)
    )
  )
  (generator): Sequential(
    (0): Linear(in_features=500, out_features=510, bias=True)
    (1): Cast()
    (2): LogSoftmax()
  )
)
[2019-07-31 16:01:56,162 INFO] encoder: 8047424
[2019-07-31 16:01:56,162 INFO] decoder: 5214310
[2019-07-31 16:01:56,162 INFO] * number of parameters: 13261734
[2019-07-31 16:01:56,249 INFO] Starting training on GPU: [0]
[2019-07-31 16:01:56,249 INFO] Start training loop and validate every 10000 steps...
[2019-07-31 16:06:24,384 INFO] Step 1000/100000; acc:  35.17; ppl: 25.25; xent: 3.23; lr: 0.10000;   0/2195 tok/s;    268 sec
[2019-07-31 16:10:46,739 INFO] Step 2000/100000; acc:  47.82; ppl: 10.94; xent: 2.39; lr: 0.10000;   0/2216 tok/s;    530 sec
[2019-07-31 16:31:11,671 INFO]  * tgt vocab size = 510
[2019-07-31 16:31:11,671 INFO] Building model...
[2019-07-31 16:31:15,414 INFO] NMTModel(
  (encoder): ImageEncoder(
    (layer1): Conv2d(3, 64, kernel_size=(3, 3), stride=(1, 1), padding=(1, 1))
    (layer2): Conv2d(64, 128, kernel_size=(3, 3), stride=(1, 1), padding=(1, 1))
    (layer3): Conv2d(128, 256, kernel_size=(3, 3), stride=(1, 1), padding=(1, 1))
    (layer4): Conv2d(256, 256, kernel_size=(3, 3), stride=(1, 1), padding=(1, 1))
    (layer5): Conv2d(256, 512, kernel_size=(3, 3), stride=(1, 1), padding=(1, 1))
    (layer6): Conv2d(512, 512, kernel_size=(3, 3), stride=(1, 1), padding=(1, 1))
    (batch_norm1): BatchNorm2d(256, eps=1e-05, momentum=0.1, affine=True, track_running_stats=True)
    (batch_norm2): BatchNorm2d(512, eps=1e-05, momentum=0.1, affine=True, track_running_stats=True)
    (batch_norm3): BatchNorm2d(512, eps=1e-05, momentum=0.1, affine=True, track_running_stats=True)
    (rnn): LSTM(512, 250, num_layers=2, dropout=0.3, bidirectional=True)
    (pos_lut): Embedding(1000, 512)
  )
  (decoder): InputFeedRNNDecoder(
    (embeddings): Embeddings(
      (make_embedding): Sequential(
        (emb_luts): Elementwise(
          (0): Embedding(510, 80, padding_idx=1)
        )
      )
    )
    (dropout): Dropout(p=0.3)
    (rnn): StackedLSTM(
      (dropout): Dropout(p=0.3)
      (layers): ModuleList(
        (0): LSTMCell(580, 500)
        (1): LSTMCell(500, 500)
      )
    )
    (attn): GlobalAttention(
      (linear_in): Linear(in_features=500, out_features=500, bias=False)
      (linear_out): Linear(in_features=1000, out_features=500, bias=False)
    )
  )
  (generator): Sequential(
    (0): Linear(in_features=500, out_features=510, bias=True)
    (1): Cast()
    (2): LogSoftmax()
  )
)
[2019-07-31 16:31:15,415 INFO] encoder: 8047424
[2019-07-31 16:31:15,415 INFO] decoder: 5214310
[2019-07-31 16:31:15,415 INFO] * number of parameters: 13261734
[2019-07-31 16:31:15,506 INFO] Starting training on GPU: [0]
[2019-07-31 16:31:15,507 INFO] Start training loop and validate every 10000 steps...
[2019-07-31 16:31:41,344 INFO] Step 100/100000; acc:  13.95; ppl: 171.44; xent: 5.14; lr: 0.10000;   0/2295 tok/s;     26 sec
…
