[2020-01-02 03:02:06,279 INFO]  * tgt vocab size = 510
[2020-01-02 03:02:06,279 INFO] Building model...
[2020-01-02 03:02:10,251 INFO] NMTModel(
  (encoder): ImageEncoder(
    (layer1): Conv2d(3, 64, kernel_size=(3, 3), stride=(1, 1), padding=(1, 1))
    (layer2): Conv2d(64, 64, kernel_size=(3, 3), stride=(1, 1), padding=(1, 1))
    (ds1): Downsample(
      (pad): ReflectionPad2d([3, 3, 3, 3])
    )
    (layer3): Conv2d(64, 128, kernel_size=(3, 3), stride=(1, 1), padding=(1, 1))
    (layer4): Conv2d(128, 128, kernel_size=(3, 3), stride=(1, 1), padding=(1, 1))
    (layer5): Conv2d(128, 128, kernel_size=(3, 3), stride=(1, 1), padding=(1, 1))
    (layer6): Conv2d(128, 128, kernel_size=(3, 3), stride=(1, 1), padding=(1, 1))
    (layer7): Conv2d(128, 128, kernel_size=(2, 2), stride=(1, 1), padding=(1, 1))
    (layer8): Conv2d(128, 256, kernel_size=(2, 2), stride=(1, 1), padding=(1, 1))
    (layer9): Conv2d(256, 256, kernel_size=(2, 2), stride=(1, 1), padding=(1, 1))
    (layer10): Conv2d(256, 256, kernel_size=(2, 2), stride=(1, 1), padding=(1, 1))
    (batch_norm1): BatchNorm2d(64, eps=1e-05, momentum=0.1, affine=True, track_running_stats=True)
    (batch_norm2): BatchNorm2d(128, eps=1e-05, momentum=0.1, affine=True, track_running_stats=True)
    (batch_norm3): BatchNorm2d(256, eps=1e-05, momentum=0.1, affine=True, track_running_stats=True)
    (rnn): LSTM(256, 250, dropout=0.3, bidirectional=True)
    (pos_lut): Embedding(1000, 256)
  )
  (decoder): InputFeedRNNDecoder(
    (embeddings): Embeddings(
      (make_embedding): Sequential(
        (emb_luts): Elementwise(
          (0): Embedding(510, 80, padding_idx=1)
        )
      )
    )
    (dropout): Dropout(p=0.3)
    (rnn): StackedLSTM(
      (dropout): Dropout(p=0.3)
      (layers): ModuleList(
        (0): LSTMCell(580, 500)
        (1): LSTMCell(500, 500)
        (2): LSTMCell(500, 500)
      )
    )
    (attn): GlobalAttention(
      (linear_in): Linear(in_features=500, out_features=500, bias=False)
      (linear_out): Linear(in_features=1000, out_features=500, bias=False)
    )
  )
  (generator): Sequential(
    (0): Linear(in_features=500, out_features=510, bias=True)
    (1): Cast()
    (2): LogSoftmax()
  )
)
[2020-01-02 03:02:10,252 INFO] encoder: 2550016
[2020-01-02 03:02:10,252 INFO] decoder: 7218310
[2020-01-02 03:02:10,252 INFO] * number of parameters: 9768326
[2020-01-02 03:02:10,629 INFO] Starting training on GPU: [0]
[2020-01-02 03:02:10,629 INFO] Start training loop and validate every 10000 steps...
[2020-01-02 03:02:47,146 INFO]  * tgt vocab size = 510
[2020-01-02 03:02:47,146 INFO] Building model...
[2020-01-02 03:02:51,158 INFO] NMTModel(
  (encoder): ImageEncoder(
    (layer1): Conv2d(3, 64, kernel_size=(3, 3), stride=(1, 1), padding=(1, 1))
    (layer2): Conv2d(64, 64, kernel_size=(3, 3), stride=(1, 1), padding=(1, 1))
    (ds1): Downsample(
      (pad): ReflectionPad2d([3, 3, 3, 3])
    )
    (layer3): Conv2d(64, 128, kernel_size=(3, 3), stride=(1, 1), padding=(1, 1))
    (layer4): Conv2d(128, 128, kernel_size=(3, 3), stride=(1, 1), padding=(1, 1))
    (layer5): Conv2d(128, 128, kernel_size=(3, 3), stride=(1, 1), padding=(1, 1))
    (layer6): Conv2d(128, 128, kernel_size=(3, 3), stride=(1, 1), padding=(1, 1))
    (layer7): Conv2d(128, 128, kernel_size=(2, 2), stride=(1, 1), padding=(1, 1))
    (layer8): Conv2d(128, 256, kernel_size=(2, 2), stride=(1, 1), padding=(1, 1))
    (layer9): Conv2d(256, 256, kernel_size=(2, 2), stride=(1, 1), padding=(1, 1))
    (layer10): Conv2d(256, 256, kernel_size=(2, 2), stride=(1, 1), padding=(1, 1))
    (batch_norm1): BatchNorm2d(64, eps=1e-05, momentum=0.1, affine=True, track_running_stats=True)
    (batch_norm2): BatchNorm2d(128, eps=1e-05, momentum=0.1, affine=True, track_running_stats=True)
    (batch_norm3): BatchNorm2d(256, eps=1e-05, momentum=0.1, affine=True, track_running_stats=True)
    (rnn): LSTM(256, 250, dropout=0.3, bidirectional=True)
    (pos_lut): Embedding(1000, 256)
  )
  (decoder): InputFeedRNNDecoder(
    (embeddings): Embeddings(
      (make_embedding): Sequential(
        (emb_luts): Elementwise(
          (0): Embedding(510, 80, padding_idx=1)
        )
      )
    )
    (dropout): Dropout(p=0.3)
    (rnn): StackedLSTM(
      (dropout): Dropout(p=0.3)
      (layers): ModuleList(
        (0): LSTMCell(580, 500)
        (1): LSTMCell(500, 500)
        (2): LSTMCell(500, 500)
      )
    )
    (attn): GlobalAttention(
      (linear_in): Linear(in_features=500, out_features=500, bias=False)
      (linear_out): Linear(in_features=1000, out_features=500, bias=False)
    )
  )
  (generator): Sequential(
    (0): Linear(in_features=500, out_features=510, bias=True)
    (1): Cast()
    (2): LogSoftmax()
  )
)
[2020-01-02 03:02:51,160 INFO] encoder: 2550016
[2020-01-02 03:02:51,160 INFO] decoder: 7218310
[2020-01-02 03:02:51,160 INFO] * number of parameters: 9768326
[2020-01-02 03:02:51,523 INFO] Starting training on GPU: [0]
[2020-01-02 03:02:51,523 INFO] Start training loop and validate every 10000 steps...
[2020-01-02 03:04:10,190 INFO]  * tgt vocab size = 510
[2020-01-02 03:04:10,191 INFO] Building model...
[2020-01-02 03:04:14,030 INFO] NMTModel(
  (encoder): ImageEncoder(
    (layer1): Conv2d(3, 64, kernel_size=(3, 3), stride=(1, 1), padding=(1, 1))
    (layer2): Conv2d(64, 64, kernel_size=(3, 3), stride=(1, 1), padding=(1, 1))
    (ds1): Downsample(
      (pad): ReflectionPad2d([3, 3, 3, 3])
    )
    (layer3): Conv2d(64, 128, kernel_size=(3, 3), stride=(1, 1), padding=(1, 1))
    (layer4): Conv2d(128, 128, kernel_size=(3, 3), stride=(1, 1), padding=(1, 1))
    (layer5): Conv2d(128, 128, kernel_size=(3, 3), stride=(1, 1), padding=(1, 1))
    (layer6): Conv2d(128, 128, kernel_size=(3, 3), stride=(1, 1), padding=(1, 1))
    (layer7): Conv2d(128, 128, kernel_size=(2, 2), stride=(1, 1), padding=(1, 1))
    (layer8): Conv2d(128, 256, kernel_size=(2, 2), stride=(1, 1), padding=(1, 1))
    (layer9): Conv2d(256, 256, kernel_size=(2, 2), stride=(1, 1), padding=(1, 1))
    (layer10): Conv2d(256, 256, kernel_size=(2, 2), stride=(1, 1), padding=(1, 1))
    (batch_norm1): BatchNorm2d(64, eps=1e-05, momentum=0.1, affine=True, track_running_stats=True)
    (batch_norm2): BatchNorm2d(128, eps=1e-05, momentum=0.1, affine=True, track_running_stats=True)
    (batch_norm3): BatchNorm2d(256, eps=1e-05, momentum=0.1, affine=True, track_running_stats=True)
    (rnn): LSTM(256, 250, dropout=0.3, bidirectional=True)
    (pos_lut): Embedding(1000, 256)
  )
  (decoder): InputFeedRNNDecoder(
    (embeddings): Embeddings(
      (make_embedding): Sequential(
        (emb_luts): Elementwise(
          (0): Embedding(510, 80, padding_idx=1)
        )
      )
    )
    (dropout): Dropout(p=0.3)
    (rnn): StackedLSTM(
      (dropout): Dropout(p=0.3)
      (layers): ModuleList(
        (0): LSTMCell(580, 500)
      )
    )
    (attn): GlobalAttention(
      (linear_in): Linear(in_features=500, out_features=500, bias=False)
      (linear_out): Linear(in_features=1000, out_features=500, bias=False)
    )
  )
  (generator): Sequential(
    (0): Linear(in_features=500, out_features=510, bias=True)
    (1): Cast()
    (2): LogSoftmax()
  )
)
[2020-01-02 03:04:14,031 INFO] encoder: 2550016
[2020-01-02 03:04:14,031 INFO] decoder: 3210310
[2020-01-02 03:04:14,031 INFO] * number of parameters: 5760326
[2020-01-02 03:04:14,430 INFO] Starting training on GPU: [0]
[2020-01-02 03:04:14,430 INFO] Start training loop and validate every 10000 steps...
[2020-01-02 03:10:29,430 INFO] Step 500/100000; acc:  32.75; ppl: 31.70; xent: 3.46; lr: 0.10000;   0/1569 tok/s;    375 sec
…
